model/model.pth (torch, 17216 bytes, 4 tensors)

linear1.weight f4 [256, 11]
0.0502094 0.39612007 -0.20868143 -0.02283469 0.08937573 -0.30682573 -0.029202245 0.05666958
0.07183268 0.30659837 0.07408878 0.08299367 0.16252555 0.296925 -0.27524388 0.23717198
-0.36453095 0.27508038 0.50254333 -0.13249043 0.58030176 -0.086436525 -0.1499 -0.20657125
0.034479294 -0.43798026 0.38122034 -0.5271157 0.3173319 -0.47794843 0.20805559 -0.46364295
0.19840686 -0.16299196 0.13118139 -0.2717917 0.22604117 -0.3417553 -0.18304993 -0.21110459
-0.15812 -0.22618932 0.44116643 -0.11409103 -0.26757577 -0.08537796 0.2926364 -0.07106191
-0.07293653 -0.0605128 -0.2670224 -0.18760695 -0.21816751 -0.09693889 -0.21112451 0.14144294
0.09584849 0.005056679 -0.0074782693 -0.14315836 0.6210612 -0.121123634 0.22075209 0.15019505
-0.40811458 -0.24697694 0.5041015 -0.17048724 -0.3707046 -0.32747608 -0.06551909 0.42822832
0.39407247 0.1803196 0.013449108 -0.70737827 -0.51045465 -0.2642199 -0.21875817 -0.01254968
-0.18311475 0.02753815 -0.27249876 -0.033637717 -0.052422076 -0.029606346 0.20115887 -0.11453675
-0.073969156 -0.22890514 0.026900334 -0.09617245 -0.12584828 -0.080491826 -0.22052562 -0.15951546
-0.1908784 -0.02068222 -0.009747557 -0.47719154 0.18644483 0.3316482 -0.021595646 -0.13103807
-0.06365707 -0.2159472 -0.2156192 -0.3258389 -0.03901505 -0.29266948 0.012409515 -0.25709483
0.1485946 -0.37773994 -0.2710288 -0.47219467 0.1332339 0.089428954 0.2866911 0.37437227
-0.16584697 0.3105015 -0.17011616 -0.29583707 0.0040265126 -0.19067532 0.46305045 0.07725438
-0.06023518 0.0662644 -0.5352619 -0.14243877 -0.3617049 0.1492005 0.54979706 -0.018611895
0.21984269 -0.045924425 -0.15750016 0.106151715 0.010162744 0.082193695 -0.34864932 0.019713592
-0.49899358 -0.57681894 -0.07268921 -0.24205382 0.5661088 0.34386832 -0.13095582 -0.11997671
0.07403504 -0.02864103 0.24963367 -0.19067435 -0.48455888 0.50220585 -0.06973978 -0.38828298
-0.20775105 -0.33616623 0.20891114 -0.115201354 -0.40492228 0.06380786 0.03005127 -0.5689123
0.21079187 -0.5499748 -0.55736476 0.074656464 -0.32911107 0.30639714 -0.117479414 -0.13384992
0.26021335 0.29419756 0.08970029 0.03276986 -0.28466943 -0.14283365 0.15692109 0.014762207
0.34981552 0.3009558 -0.015847579 -0.14371274 0.0044139903 -0.2751597 -0.35082793 0.21203831
-0.46269348 0.29263008 -0.34227479 0.29563513 -0.47297308 0.13547504 0.13949211 0.20381215
0.2431309 -0.18049216 -0.0006678182 0.009429424 0.017687857 0.08787292 0.00323319 0.24148934
0.3683718 -0.55815774 -0.07426411 0.46415073 0.25752825 -0.34349826 0.22380088 0.028259406
-0.060632985 -0.6642912 0.0008410722 0.00066063204 -0.0838622 0.08656828 0.56287664 -0.086176954
0.13490088 -0.03085667 -0.038482025 0.28813046 0.17455631 0.22856271 0.46208668 -0.007063335
-0.37790057 -0.3541569 -0.3039409 0.14506069 -0.20865737 0.51398927 -0.35268188 0.17139882
-0.6261491 0.02558763 -0.0023092006 -0.56092936 -0.1840196 -0.2622781 -0.3260278 0.46870142
-0.34638426 -0.26503974 -0.022528354 0.23344398 -0.36031094 0.04609613 -0.37290555 -0.62882584
00000000: 5fa8 4d3d 40d0 ca3e 96b0 55be d10f bbbc
00000010: 9f0a b73d 4318 9dbe 8c39 efbc 5d1e 683d
00000020: 031d 933d 76fa 9c3e dcbb 973d 96f8 a93d
00000030: 196d 263e 8e06 983e c4ec 8cbe 36dd 723e
00000040: cda3 babe 56d7 8c3e aea6 003f 92ab 07be
00000050: a88e 143f a205 b1bd 637f 19be 6a87 53be
00000060: 293a 0d3d f33e e0be 502f c33e 0ef1 06bf
00000070: 5479 a23e a8b5 f4be 860c 553e 9c62 edbe
00000080: 2b2b 4b3e 5de7 26be 6a54 063e 4828 8bbe
00000090: 5677 673e 8dfa aebe 7171 3bbe cd2b 58be
000000a0: 36ea 21be 2c9e 67be 91e0 e13e 8fa8 e9bd
000000b0: b1ff 88be a4da aebd 70d4 953e e888 91bd
000000c0: bf5f 95bd 45dc 77bd 29b7 88be 091c 40be
000000d0: 4e67 5fbe e687 c6bd 0631 58be 6bd6 103e
000000e0: 374c c43d 7fb2 a53b 450c f5bb 1b98 12be
000000f0: defd 1e3f ab0f f8bd d60c 623e bbcc 193e
00000100: 65f4 d0be 86e7 7cbe cc0c 013f 3594 2ebe
00000110: fecc bdbe f2aa a7be df2e 86bd be40 db3e
00000120: dec3 c93e b4a5 383e a659 5c3c be16 35bf
00000130: 28ad 02bf d547 87be 2402 60be 2c9d 4dbc
00000140: 6f82 3bbe b097 e13c f584 8bbe b4c7 09bd
00000150: 88b8 56bd 0289 f2bc 97fc 4d3e 3e92 eabd
00000160: 247d 97bd 1c66 6abe 175e dc3c 10f6 c4bd
00000170: 5fde 00be e6d8 a4bd 78d1 61be 0558 23be
00000180: a175 43be c26d a9bc 38b4 1fbc 7352 f4be
00000190: 65eb 3e3e cbcd a93e 5ae9 b0bc d82e 06be
000001a0: a35e 82bd 4321 5dbe 48cb 5cbe 5bd4 a6be
000001b0: 3fce 1fbd c6d8 95be 4751 4b3c efa1 83be
000001c0: 2f29 183e 2167 c1be 49c4 8abe 80c3 f1be
000001d0: 786e 083e 8726 b73d 2dc9 923e b9ad bf3e
000001e0: cad3 29be 0dfa 9e3e ee32 2ebe f577 97be
000001f0: d6f0 833b 6440 43be f314 ed3e 8b37 9e3d
00000200: 2ab9 76bd a1b5 873d ed06 09bf 78db 11be
00000210: 6231 b9be 04c8 183e 80bf 0c3f f977 98bc
00000220: 711e 613e 401b 3cbd b947 21be 1266 d93d
00000230: a381 263c 2b55 a83d 2a82 b2be 667e a13c
00000240: 167c ffbe 68aa 13bf 15de 94bd f5dc 77be
00000250: 82ec 103f 820f b03e 4819 06be 59b6 f5bd
00000260: af9f 973d 98a0 eabc f89f 7f3e 2340 43be
00000270: 1a18 f8be 9090 003f bbd3 8ebd 07cd c6be
00000280: b1bc 54be fb1d acbe cdec 553e b0ee ebbd
00000290: f951 cfbe b2ad 823d 152e f63c 3da4 11bf
000002a0: d3d9 573e 26cb 0cbf 75af 0ebf 7de5 983d
000002b0: 3f81 a8be 16e0 9c3e 0c99 f0bd f40f 09be
000002c0: af3a 853e 10a1 963e c9b4 b73d b039 063d
000002d0: 31c0 91be fc42 12be ecaf 203e 2fdd 713c
000002e0: 051b b33e e116 9a3e c8d2 81bc 6f29 13be
000002f0: 3ca3 903b bbe1 8cbe b89f b3be 9220 593e
00000300: 29e6 ecbe 9cd3 953e a43e afbe 7d5d 973e
00000310: 8729 f2be f8b9 0a3e 05d7 0e3e 22b4 503e
00000320: 4ff7 783e f0d2 38be 8510 2fba df7d 1a3c
00000330: 20e6 903c b8f6 b33d ede3 533b fb48 773e
00000340: 3b9b bc3e 6de3 0ebf c817 98bd 2aa5 ed3e
00000350: beda 833e 01df afbe 0f2c 653e 4580 e73c
00000360: 4b5a 78bd fd0e 2abf 667b 5c3a 442e 2d3a
00000370: f2bf abbd b64a b13d af18 103f 8b7d b0bd
00000380: 7523 0a3e 21c7 fcbc 549f 1dbd d685 933e
00000390: e4be 323e 580c 6a3e a096 ec3e 8c73 e7bb
000003a0: 2f7c c1be 0e54 b5be 249e 9bbe ca8a 143e
000003b0: 47aa 55be cd94 033f b892 b4be 2c83 2f3e
000003c0: 4f4b 20bf 269d d13c f555 17bb 1199 0fbf
000003d0: a26f 3cbe 5149 86be 1eed a6be a2f9 ef3e
000003e0: 4759 b1be 4ab3 87be 628d b8bc f00b 6f3e
000003f0: ad7a b8be 4ccf 3c3d 7aed bebe bbfa 20bf

linear1.bias f4 [256]
-0.2773223 -0.27516267 0.22039893 -0.4023882 -0.25015622 -0.23462006 0.036861 -0.23747607
0.048848756 0.19048528 -0.45642635 0.051803127 0.041124668 0.47358438 -0.12954983 0.15611765
-0.39893863 0.013929666 -0.2273147 0.36992377 -0.14998992 0.14361715 -0.05015112 -0.25573587
-0.23097698 0.25257832 -0.038192693 -0.22627318 -0.04728056 -0.066502154 -0.031682458 -0.2617325
-0.31493795 -0.33541283 0.14659831 -0.039564636 5.440999e-05 0.09554524 -0.16854507 -0.33317816
-0.21254152 0.003071042 -0.46011692 -0.13422701 -0.035975482 -0.32227018 0.12362314 -0.20953338
-0.18598118 -0.13216831 0.38369104 0.016096085 -0.080884 -0.19589181 -0.18760549 -0.06347717
0.09101105 -0.10216366 0.17045322 0.054798312 -0.19686629 -0.16687207 -0.061087396 -0.13283828
0.09249845 0.20201111 0.4862647 -0.34581423 0.24328756 -0.11768422 -0.25344792 -0.052939292
-0.3116587 -0.23290603 0.03662871 -0.23747261 -0.25983626 0.011376819 -0.3330865 -0.14904983
-0.3107415 -0.21721825 -0.38440093 -0.3196648 0.14160892 -0.26667485 -0.26573935 -0.46359566
-0.08270764 0.6031468 -0.07982197 -0.360623 -0.07270023 -0.15530364 0.1328706 -0.17505582
-0.3292945 -0.29541102 -0.2787272 -0.110907614 -0.22475752 0.09650721 -0.41526178 -0.09519204
-0.11519352 -0.14580908 -0.32248425 -0.35384545 0.3610162 -0.15535556 0.15665273 -0.14863834
0.102410235 -0.39881253 0.2097677 -0.17103525 0.029091846 -0.10781323 0.07422159 -0.20897791
-0.18995422 -0.0063739666 -0.046023052 0.2913656 -0.19091184 -0.24975131 -0.13267303 -0.2993955
-0.0027941414 -0.33895767 0.24063687 -0.13283418 -0.28526056 -0.27212164 -0.27846837 0.14860073
0.44752842 -0.42821234 0.13231446 0.37439924 -0.25737035 0.060412634 -0.23090062 -0.09938006
-0.35170212 -0.058365215 -0.19218962 0.013344014 0.33870786 -0.3786013 -0.16537838 -0.19308513
-0.14302018 -0.14039716 -0.24477556 -0.074444726 -0.029819312 -0.11612097 -0.015629236 -0.06356167
0.17573693 0.12268487 0.394571 -0.30100435 -0.07334078 0.37003052 -0.049532183 -0.2627367
-0.045206852 -0.04357502 -0.2300975 -0.1428221 -0.037427403 -0.19522797 0.9109538 -0.2253132
-0.0046129785 -0.04909452 -0.0877209 0.25452095 -0.15246958 -0.31501162 0.019865666 -0.22032635
0.0362436 -0.16911404 -0.06596488 -0.1364968 -0.14010942 0.06494158 -0.08807605 -0.0866101
-0.21767072 0.16529141 0.021163143 -0.27387705 -0.0014032609 -0.008343898 0.09486758 0.3157716
-0.19680527 0.20722805 -0.19812416 0.3969979 -0.22458418 -0.23317832 -0.0039057867 -0.037949596
0.39397293 -0.315951 -0.18068494 -0.36155924 0.013078437 0.26631308 -0.24164745 0.11824495
-0.2654088 -0.13893373 0.08595942 -0.26885253 -0.053652335 -0.2258755 -0.07160312 -0.11347938
-0.18083677 -0.19610536 0.18515684 0.104520686 -0.2590308 -0.20691898 -0.16620871 -0.3436438
0.22661792 -0.2392147 -2.6953003e-05 0.016658034 -0.12841964 0.3501232 -0.007894355 -0.13833104
-0.06481502 0.18081711 0.10213975 -0.22964567 -0.17066574 0.057382617 -0.26699087 -0.13682337
0.04942187 -0.33031118 0.10309478 -0.12808378 -0.26823846 -0.26238582 -0.49100468 -0.30992368
00000000: 30fd 8dbe 1fe2 8cbe 42b0 613e d305 cebe
00000010: 7a14 80be 3e40 70be 8ffb 163d ed2c 73be
00000020: a215 483d 930e 433e b7b0 e9be 842f 543d
00000030: 5772 283d a779 f23e b6a8 04be 4edd 1f3e
00000040: af41 ccbe 4139 643c 2fc5 68be a666 bd3e
00000050: f596 19be 6010 133e 436b 4dbd d0ef 82be
00000060: 3b85 6cbe f251 813e f16f 1cbd 28b4 67be
00000070: 43a9 41bd 4832 88bd 77c5 01bd cd01 86be
00000080: 8c3f a1be 3bbb abbe de1d 163e 870e 22bd
00000090: 4836 6438 39ad c33d 1497 2cbe 5496 aabe
000000a0: 7ca4 59be 8943 493b 7294 ebbe ce72 09be
000000b0: 075b 13bd 9900 a5be 212e fd3d eb8f 56be
000000c0: da71 3ebe 2157 07be 2773 c43e f0db 833c
000000d0: 83a6 a5bd dd97 48be a71b 40be 5200 82bd
000000e0: 0064 ba3d 2e3b d1bd 4a8b 2e3e 3274 603d
000000f0: 5197 49be 83e0 2abe c736 7abd c206 08be
00000100: d46f bd3d 00dc 4e3e b0f7 f83e 900e b1be
00000110: 6020 793e 6d04 f1bd edc3 81be dfd6 58bd
00000120: bb91 9fbe eb7e 6ebe fc07 163d 052c 73be
00000130: 4209 85be d665 3a3c 508a aabe 85a0 18be
00000140: 8319 9fbe 766e 5ebe 33d0 c4be 1bab a3be
00000150: ee01 113e 9b89 88be fd0e 88be 695c edbe
00000160: a062 a9bd d467 1a3f b379 a3bd 94a3 b8be
00000170: dce3 94bd eb07 1fbe 3b0f 083e d541 33be
00000180: 4a99 a8be 1d40 97be 55b5 8ebe 8823 e3bd
00000190: d626 66be 92a5 c53d 319d d4be 0bf4 c2bd
000001a0: 95ea ebbd fa4e 15be a81c a5be 3b2b b5be
000001b0: 1ed7 b83e 8715 1fbe 9369 203e a634 18be
000001c0: 75bc d13d 2831 ccbe 58cd 563e dd23 2fbe
000001d0: 0652 ee3c 2fcd dcbd 7d01 983d 4efe 55be
000001e0: 5c83 42be b5dc d0bb ab82 3cbd df2d 953e
000001f0: 657e 43be cfbe 7fbe 70db 07be 5e4a 99be
00000200: ea1d 37bb dc8b adbe 8369 763e af05 08be
00000210: ac0d 92be 8753 8bbe 6893 8ebe ca2a 183e
00000220: 7222 e53e a63e dbbe 717d 073e 42b1 bf3e
00000230: 0cc6 83be 3d73 773d 3671 6cbe c687 cbbd
00000240: 4d12 b4be 5d10 6fbd 5bcd 44be daa0 5a3c
00000250: 1e6b ad3e 08d8 c1be f358 29be 1cb8 45be
00000260: e273 12be 46c4 0fbe 72a6 7abe 7a76 98bd
00000270: a147 f4bc d5d0 edbd e208 80bc 9f2c 82bd
00000280: 62f4 333e 3542 fb3d 3605 ca3e 3e1d 9abe
00000290: b133 96bd a474 bd3e 42e2 4abd 6d85 86be
000002a0: d22a 39bd b87b 32bd ae9e 6bbe f53f 12be
000002b0: 7a4d 19bd d7e9 47be 4534 693f 81b8 66be
000002c0: 7828 97bb 5617 49bd 04a7 b3bd 9250 823e
000002d0: fc20 1cbe 3449 a1be 52bd a23c 3b9d 61be
000002e0: 2b74 143d 3b2c 2dbe 9818 87bd d1c5 0bbe
000002f0: d878 0fbe 1700 853d 3761 b4bd a360 b1bd
00000300: 13e5 5ebe 2742 293e 545e ad3c 9d39 8cbe
00000310: 9fed b7ba d8b4 08bc ef49 c23d d1ac a13e
00000320: 5287 49be 9733 543e 0fe1 4abe 4f43 cb3e
00000330: 65f9 65be 4cc6 6ebe 3af8 7fbb 0971 1bbd
00000340: d2b6 c93e 54c4 a1be 7905 39be 4b1e b9be
00000350: f146 563c 305a 883e 6e72 77be 692a f23d
00000360: aae3 87be a544 0ebe 7e0b b03d 0aa7 89be
00000370: 8dc2 5bbd e84b 67be a8a4 92bd e167 e8bd
00000380: 462d 39be d8cf 48be c199 3d3e f10e d63d
00000390: af9f 84be 92e2 53be 9e32 2abe 15f2 afbe
000003a0: 870e 683e b3f4 74be 2219 e2b7 6e76 883c
000003b0: 7080 03be 5943 b33e 5357 01bc a7a6 0dbe
000003c0: bdbd 84bd 1f28 393e a52e d13d 3c28 6bbe
000003d0: 00c3 2ebe 090a 6b3d 07b3 88be 6d1b 0cbe
000003e0: 966e 4a3d 8c1e a9be 5b23 d33d 6528 03be
000003f0: 8d56 89be 6f57 86be f764 fbbe 51ae 9ebe

linear2.weight f4 [3, 256]
0.054987546 -0.32190907 0.3745698 -0.3427219 -0.0022440134 -0.32730567 -0.23348564 -0.0115865525
0.017408578 0.018054198 0.03170617 -0.20017532 0.12484479 0.23975745 -0.322892 -0.2970503
-0.07408035 0.24690273 -0.06036206 0.27359882 -0.06580621 0.36545125 0.24729726 -0.0577853
-0.11418603 0.25634062 -0.44347513 0.011891805 0.052513126 -0.030653276 -0.36635035 -0.20798211
-0.04834509 0.0022603536 0.044497963 0.4382106 -0.4466331 0.16853288 -0.16040546 -0.0023653514
-0.52236277 -0.053482305 -0.03395916 -0.02224889 -0.14040112 -0.37406057 -0.0495952 -0.007869418
0.05431455 -0.682931 0.22642082 0.10435837 -0.50485855 -0.042070232 -0.12160613 0.120396554
0.43973666 -0.00472013 0.08317951 -0.038753033 -0.23882966 -0.07421314 -0.2660597 -0.42411968
0.036381118 0.25672886 0.16164091 0.0421315 0.3883021 -0.09497761 -0.010942828 0.2620253
-0.06951293 -0.06533616 -0.17243245 -0.011485337 0.035467286 0.6284799 0.015004697 -0.022852061
-0.13085848 0.024171015 -0.059789114 -0.07287285 0.15772815 -0.6718069 -0.20820919 -0.031174658
0.060067076 0.33371204 0.051359795 -0.041234054 -0.3103917 -0.0052014957 0.0686063 0.42776275
-0.20938551 -0.16065603 -0.51417583 -0.15647574 -0.28828123 -0.026743218 -0.19224048 -0.011573091
0.14481248 -0.12988235 0.01123025 -0.1988993 0.42893678 -0.3570402 0.21938366 -0.19807513
0.25668857 -0.2607942 0.3834604 0.044741604 -0.05465467 -0.43450573 0.14279284 -0.08827559
-0.004084868 0.051096123 0.305663 0.27731872 -0.10874505 -0.050209578 -0.0366145 -0.003344218
0.04860189 -0.12968649 0.3072223 -0.35844037 -0.0103891855 -0.035080068 -0.30544585 0.041242108
0.3479444 -0.22038862 -0.52259004 0.25510553 -0.18341728 -0.071258046 0.01320554 0.16072065
-0.20359798 -0.0034052657 0.41335493 0.014071995 0.32310998 0.10157668 0.56301844 0.016161775
-0.07835655 0.18815657 -0.030676985 0.003732972 -0.033270676 -0.0039561302 -0.0020798852 -0.0646686
0.22609562 0.073218025 0.41521358 -0.0071235895 -0.21471618 0.22509435 -0.0015791368 -0.37656102
-0.19857706 -0.22466514 0.14163035 0.2913067 -0.01833188 -0.009331062 0.3437925 -0.09379529
0.36683962 -0.08474259 -0.052844852 0.12694924 -0.059866343 0.019502586 -0.007162344 -0.19297817
-0.49735865 -0.61472213 -0.37509882 0.018436505 -0.29301998 0.16000795 -0.5858969 -0.31229487
-0.28203246 0.41611913 0.007338463 -0.108761065 0.10747742 -0.1325427 0.43843937 0.66367084
-0.18202534 0.19721407 -0.22764441 0.30824852 -0.26870275 -0.011601939 -0.07768091 0.49463546
0.184728 -0.30682632 -0.2729927 -0.16714959 -0.42137754 0.02740876 0.024784472 0.3505081
-0.005729487 0.022473862 0.3216051 -0.12868623 -0.18484397 -0.15611932 -0.01814588 0.06947812
0.12358543 -0.01120875 0.071103096 0.21666488 0.23100623 -0.017211143 -0.54315126 -0.16837916
-0.17235966 -0.25062096 0.009004254 -0.10567351 0.41632152 0.17950442 0.031286526 -0.3439348
-0.041923266 0.14208296 0.31775388 0.0100995675 -0.07610864 0.26408234 -0.2657007 -0.15894552
0.20532939 -0.08665427 0.11920194 -0.17107369 0.012858012 -0.4618221 -0.024835803 -0.13846616
00000000: 9f3a 613d 44d1 a4be 9dc7 bf3e 3f79 afbe
00000010: 4c10 13bb 9c94 a7be dc16 6fbe 86d5 3dbc
00000020: 6f9c 8e3c 66e6 933c 54de 013d c2fa 4cbe
00000030: a0ae ff3d fa82 753e 1a52 a5be fa16 98be
00000040: 70b7 97bd 12d4 7c3e 353e 77bd 2515 8c3e
00000050: 68c5 86bd 6d1c bb3e 7e3b 7d3e 47b0 6cbd
00000060: 5eda e9bd 143f 833e 2c0f e3be d8d5 423c
00000070: 0118 573d 941c fbbc 4692 bbbe 43f9 54be
00000080: 8005 46bd 7122 143b 7f43 363d 245d e03e
00000090: 18ad e4be e293 2c3e 5441 24be 0304 1bbb
000000a0: 91b9 05bf 4310 5bbd c318 0bbd 4e43 b6bc
000000b0: 50c5 0fbe de84 bfbe 5624 4bbd bbee 00bc
000000c0: ef78 5e3d 91d4 2ebf dcda 673e d7b9 d53d
000000d0: 693e 01bf d651 2cbd a20c f9bd 7892 f63d
000000e0: 2a25 e13e 52ab 9abb 055a aa3d 80bb 1ebd
000000f0: c38f 74be 0ffd 97bd fa38 88be 3726 d9be
00000100: 5e04 153d f771 833e 3285 253e 1492 2c3d
00000110: 88cf c63e 9f83 c2bd 8c49 33bc 2e28 863e
00000120: cc5c 8ebd f7ce 85bd 2292 30be ff2c 3cbc
00000130: 2546 113d 0fe4 203f 43d6 753c 3f34 bbbc
00000140: c4ff 05be 4b02 c63c 6ee5 74bd 5c3e 95bd
00000150: 7d83 213e 89fb 2bbf ca34 55be ff61 ffbc
00000160: e508 763d 4edc aa3e a65e 523d 0ae5 28bd
00000170: a9eb 9ebe 4f71 aabb 7681 8c3d b803 db3e
00000180: 2869 56be 0483 24be 07a1 03bf 2d3b 20be
00000190: 9999 93be 9814 dbbc b0da 44be 109d 3dbc
000001a0: b949 143e e1ff 04be 15ff 373c 42ac 4bbe
000001b0: 9a9d db3e f9cd b6be 1ca6 603e 35d4 4abe
000001c0: af6c 833e d186 85be ec54 c43e f942 373d
000001d0: 93dd 5fbd 8977 debe 4938 123e d5c9 b4bd
000001e0: 5bda 85bb 2b4a 513d dc7f 9c3e b8fc 8d3e
000001f0: bab5 debd 8fa8 4dbd 16f9 15bd ab2a 5bbb
00000200: c712 473d 89cc 04be 3e4c 9d3e 7f85 b7be
00000210: 6737 2abc 1eb0 0fbd 6663 9cbe 7ced 283d
00000220: c525 b23e 8ead 61be 76c8 05bf 319d 823e
00000230: bdd1 3bbe bdef 91bd 0d5c 583c f493 243e
00000240: fd7b 50be e12a 5fbb 42a3 d33e 3a8e 663c
00000250: ac6e a53e 6f07 d03d fa21 103f b365 843c
00000260: 6679 a0bd 1eac 403e 4d4e fbbc e1a4 743b
00000270: d546 08bd 6da2 81bb af4e 08bb f970 84bd
00000280: 9c85 673e 55f3 953d e096 d43e 006d e9bb
00000290: 8fde 5bbe 227f 663e 0afb ceba 9bcc c0be
000002a0: c957 4bbe 9e0e 66be 8c07 113e 2726 953e
000002b0: bd2c 96bc 50e1 18bc 9205 b03e bf17 c0bd
000002c0: 67d2 bb3e 868d adbd d873 58bd fbfe 013e
000002d0: 6936 75bd e3c3 9f3c 19b2 eabb 129c 45be
000002e0: cba5 febe 6e5e 1dbf f40c c0be 2708 973c
000002f0: b706 96be 20d9 233e 57fd 15bf 1de5 9fbe
00000300: 8f66 90be 910d d53e 7d77 f03b 1fbe debd
00000310: 1f1d dc3d 46b9 07be 207b e03e 55e6 293f
00000320: da64 3abe 7cf2 493e 9e1b 69be c0d2 9d3e
00000330: 6893 89be 0f16 3ebc 2b17 9fbd dc40 fd3e
00000340: 5629 3d3e 5718 9dbe b3c5 8bbe 4329 2bbe
00000350: ccbe d7be 5688 e03c ce08 cb3c cc75 b33e
00000360: 6cbe bbbb 1b1b b83c 6ca9 a43e 53c6 03be
00000370: bd47 3dbe bedd 1fbe aba6 94bc 8b4a 8e3d
00000380: 5c1a fd3d e8a4 37bc 809e 913d 66dd 5d3e
00000390: e68c 6c3e 62fe 8cbc f60b 0bbf 966b 2cbe
000003a0: 0d7f 30be 6451 80be 9486 133c 5a6b d8bd
000003b0: 1828 d53e 02d0 373e 4d26 003d 3918 b0be
000003c0: bbb7 2bbd 327e 113e a3b0 a23e a878 253c
000003d0: d9de 9bbd cd35 873e ec09 88be 9dc2 22be
000003e0: de41 523e cb77 b1bd 2620 f43d f12d 2fbe
000003f0: 69aa 523c f273 ecbe 7474 cbbc 13ca 0dbe

linear2.bias f4 [3]
0.293937 0.09344715 0.096492045
00000000: e97e 963e 3861 bf3d 9f9d c53d
